…
2022-10-06 08:33:56,223 - mmcv - INFO - load checkpoint from http path: https://download.openmmlab.com/mmsegmentation/v0.5/pretrain/segformer/mit_b4_20220624-d588d980.pth
2022-10-06 08:33:57,869 - mmseg - INFO - initialize SegformerHead with init_cfg {'type': 'Normal', 'std': 0.01, 'override': {'name': 'conv_seg'}}
train.py:207: UserWarning: SyncBN is only supported with DDP. To be compatible with DP, we convert SyncBN to BN. Please use dist_train.sh which can avoid this error.
  'SyncBN is only supported with DDP. To be compatible with DP, '
2022-10-06 08:33:57,890 - mmseg - INFO - EncoderDecoder(
  (backbone): MixVisionTransformer(
    (layers): ModuleList(
      (0): ModuleList(
        (0): PatchEmbed(
          (projection): Conv2d(3, 64, kernel_size=(7, 7), stride=(4, 4), padding=(3, 3))
          (norm): LayerNorm((64,), eps=1e-06, elementwise_affine=True)
        )
        (1): ModuleList(
          (0): TransformerEncoderLayer(
            (norm1): LayerNorm((64,), eps=1e-06, elementwise_affine=True)
            (attn): EfficientMultiheadAttention(
              (attn): MultiheadAttention(
                (out_proj): NonDynamicallyQuantizableLinear(in_features=64, out_features=64, bias=True)
              )
              (proj_drop): Dropout(p=0.0, inplace=False)
              (dropout_layer): DropPath()
              (sr): Conv2d(64, 64, kernel_size=(8, 8), stride=(8, 8))
              (norm): LayerNorm((64,), eps=1e-06, elementwise_affine=True)
            )
            (norm2): LayerNorm((64,), eps=1e-06, elementwise_affine=True)
            (ffn): MixFFN(
              (activate): GELU(approximate=none)
              (layers): Sequential(
                (0): Conv2d(64, 256, kernel_size=(1, 1), stride=(1, 1))
                (1): Conv2d(256, 256, kernel_size=(3, 3), stride=(1, 1), padding=(1, 1), groups=256)
                (2): GELU(approximate=none)
                (3): Dropout(p=0.0, inplace=False)
                (4): Conv2d(256, 64, kernel_size=(1, 1), stride=(1, 1))
                (5): Dropout(p=0.0, inplace=False)
              )
              (dropout_layer): DropPath()
            )
          )
          (1): TransformerEncoderLayer(
            (norm1): LayerNorm((64,), eps=1e-06, elementwise_affine=True)
            (attn): EfficientMultiheadAttention(
              (attn): MultiheadAttention(
                (out_proj): NonDynamicallyQuantizableLinear(in_features=64, out_features=64, bias=True)
              )
              (proj_drop): Dropout(p=0.0, inplace=False)
              (dropout_layer): DropPath()
              (sr): Conv2d(64, 64, kernel_size=(8, 8), stride=(8, 8))
              (norm): LayerNorm((64,), eps=1e-06, elementwise_affine=True)
            )
            (norm2): LayerNorm((64,), eps=1e-06, elementwise_affine=True)
            (ffn): MixFFN(
              (activate): GELU(approximate=none)
              (layers): Sequential(
                (0): Conv2d(64, 256, kernel_size=(1, 1), stride=(1, 1))
                (1): Conv2d(256, 256, kernel_size=(3, 3), stride=(1, 1), padding=(1, 1), groups=256)
                (2): GELU(approximate=none)
                (3): Dropout(p=0.0, inplace=False)
                (4): Conv2d(256, 64, kernel_size=(1, 1), stride=(1, 1))
                (5): Dropout(p=0.0, inplace=False)
              )
              (dropout_layer): DropPath()
            )
          )
          (2): TransformerEncoderLayer(
            (norm1): LayerNorm((64,), eps=1e-06, elementwise_affine=True)
            (attn): EfficientMultiheadAttention(
              (attn): MultiheadAttention(
                (out_proj): NonDynamicallyQuantizableLinear(in_features=64, out_features=64, bias=True)
              )
              (proj_drop): Dropout(p=0.0, inplace=False)
              (dropout_layer): DropPath()
              (sr): Conv2d(64, 64, kernel_size=(8, 8), stride=(8, 8))
              (norm): LayerNorm((64,), eps=1e-06, elementwise_affine=True)
            )
            (norm2): LayerNorm((64,), eps=1e-06, elementwise_affine=True)
            (ffn): MixFFN(
              (activate): GELU(approximate=none)
              (layers): Sequential(
                (0): Conv2d(64, 256, kernel_size=(1, 1), stride=(1, 1))
                (1): Conv2d(256, 256, kernel_size=(3, 3), stride=(1, 1), padding=(1, 1), groups=256)
                (2): GELU(approximate=none)
                (3): Dropout(p=0.0, inplace=False)
                (4): Conv2d(256, 64, kernel_size=(1, 1), stride=(1, 1))
                (5): Dropout(p=0.0, inplace=False)
              )
              (dropout_layer): DropPath()
            )
          )
        )
        (2): LayerNorm((64,), eps=1e-06, elementwise_affine=True)
      )
      (1): ModuleList(
        (0): PatchEmbed(
          (projection): Conv2d(64, 128, kernel_size=(3, 3), stride=(2, 2), padding=(1, 1))
          (norm): LayerNorm((128,), eps=1e-06, elementwise_affine=True)
        )
        (1): ModuleList(
          (0): TransformerEncoderLayer(
            (norm1): LayerNorm((128,), eps=1e-06, elementwise_affine=True)
            (attn): EfficientMultiheadAttention(
              (attn): MultiheadAttention(
                (out_proj): NonDynamicallyQuantizableLinear(in_features=128, out_features=128, bias=True)
              )
              (proj_drop): Dropout(p=0.0, inplace=False)
              (dropout_layer): DropPath()
              (sr): Conv2d(128, 128, kernel_size=(4, 4), stride=(4, 4))
              (norm): LayerNorm((128,), eps=1e-06, elementwise_affine=True)
            )
            (norm2): LayerNorm((128,), eps=1e-06, elementwise_affine=True)
            (ffn): MixFFN(
              (activate): GELU(approximate=none)
              (layers): Sequential(
                (0): Conv2d(128, 512, kernel_size=(1, 1), stride=(1, 1))
                (1): Conv2d(512, 512, kernel_size=(3, 3), stride=(1, 1), padding=(1, 1), groups=512)
                (2): GELU(approximate=none)
                (3): Dropout(p=0.0, inplace=False)
                (4): Conv2d(512, 128, kernel_size=(1, 1), stride=(1, 1))
                (5): Dropout(p=0.0, inplace=False)
              )
              (dropout_layer): DropPath()
            )
          )
          (1): TransformerEncoderLayer(
            (norm1): LayerNorm((128,), eps=1e-06, elementwise_affine=True)
            (attn): EfficientMultiheadAttention(
              (attn): MultiheadAttention(
                (out_proj): NonDynamicallyQuantizableLinear(in_features=128, out_features=128, bias=True)
              )
              (proj_drop): Dropout(p=0.0, inplace=False)
              (dropout_layer): DropPath()
              (sr): Conv2d(128, 128, kernel_size=(4, 4), stride=(4, 4))
              (norm): LayerNorm((128,), eps=1e-06, elementwise_affine=True)
            )
            (norm2): LayerNorm((128,), eps=1e-06, elementwise_affine=True)
            (ffn): MixFFN(
              (activate): GELU(approximate=none)
              (layers): Sequential(
                (0): Conv2d(128, 512, kernel_size=(1, 1), stride=(1, 1))
                (1): Conv2d(512, 512, kernel_size=(3, 3), stride=(1, 1), padding=(1, 1), groups=512)
                (2): GELU(approximate=none)
                (3): Dropout(p=0.0, inplace=False)
                (4): Conv2d(512, 128, kernel_size=(1, 1), stride=(1, 1))
                (5): Dropout(p=0.0, inplace=False)
              )
              (dropout_layer): DropPath()
            )
          )
          (2): TransformerEncoderLayer(
            (norm1): LayerNorm((128,), eps=1e-06, elementwise_affine=True)
            (attn): EfficientMultiheadAttention(
              (attn): MultiheadAttention(
                (out_proj): NonDynamicallyQuantizableLinear(in_features=128, out_features=128, bias=True)
              )
              (proj_drop): Dropout(p=0.0, inplace=False)
              (dropout_layer): DropPath()
              (sr): Conv2d(128, 128, kernel_size=(4, 4), stride=(4, 4))
              (norm): LayerNorm((128,), eps=1e-06, elementwise_affine=True)
            )
            (norm2): LayerNorm((128,), eps=1e-06, elementwise_affine=True)
            (ffn): MixFFN(
              (activate): GELU(approximate=none)
              (layers): Sequential(
                (0): Conv2d(128, 512, kernel_size=(1, 1), stride=(1, 1))
                (1): Conv2d(512, 512, kernel_size=(3, 3), stride=(1, 1), padding=(1, 1), groups=512)
                (2): GELU(approximate=none)
                (3): Dropout(p=0.0, inplace=False)
                (4): Conv2d(512, 128, kernel_size=(1, 1), stride=(1, 1))
                (5): Dropout(p=0.0, inplace=False)
              )
              (dropout_layer): DropPath()
            )
          )
          (3): TransformerEncoderLayer(
            (norm1): LayerNorm((128,), eps=1e-06, elementwise_affine=True)
            (attn): EfficientMultiheadAttention(
              (attn): MultiheadAttention(
                (out_proj): NonDynamicallyQuantizableLinear(in_features=128, out_features=128, bias=True)
              )
              (proj_drop): Dropout(p=0.0, inplace=False)
              (dropout_layer): DropPath()
              (sr): Conv2d(128, 128, kernel_size=(4, 4), stride=(4, 4))
              (norm): LayerNorm((128,), eps=1e-06, elementwise_affine=True)
            )
            (norm2): LayerNorm((128,), eps=1e-06, elementwise_affine=True)
            (ffn): MixFFN(
              (activate): GELU(approximate=none)
              (layers): Sequential(
                (0): Conv2d(128, 512, kernel_size=(1, 1), stride=(1, 1))
                (1): Conv2d(512, 512, kernel_size=(3, 3), stride=(1, 1), padding=(1, 1), groups=512)
                (2): GELU(approximate=none)
                (3): Dropout(p=0.0, inplace=False)
                (4): Conv2d(512, 128, kernel_size=(1, 1), stride=(1, 1))
                (5): Dropout(p=0.0, inplace=False)
              )
              (dropout_layer): DropPath()
            )
          )
          (4): TransformerEncoderLayer(
            (norm1): LayerNorm((128,), eps=1e-06, elementwise_affine=True)
            (attn): EfficientMultiheadAttention(
              (attn): MultiheadAttention(
                (out_proj): NonDynamicallyQuantizableLinear(in_features=128, out_features=128, bias=True)
              )
              (proj_drop): Dropout(p=0.0, inplace=False)
              (dropout_layer): DropPath()
              (sr): Conv2d(128, 128, kernel_size=(4, 4), stride=(4, 4))
              (norm): LayerNorm((128,), eps=1e-06, elementwise_affine=True)
            )
            (norm2): LayerNorm((128,), eps=1e-06, elementwise_affine=True)
            (ffn): MixFFN(
              (activate): GELU(approximate=none)
              (layers): Sequential(
                (0): Conv2d(128, 512, kernel_size=(1, 1), stride=(1, 1))
                (1): Conv2d(512, 512, kernel_size=(3, 3), stride=(1, 1), padding=(1, 1), groups=512)
                (2): GELU(approximate=none)
                (3): Dropout(p=0.0, inplace=False)
                (4): Conv2d(512, 128, kernel_size=(1, 1), stride=(1, 1))
                (5): Dropout(p=0.0, inplace=False)
              )
              (dropout_layer): DropPath()
            )
          )
          (5): TransformerEncoderLayer(
            (norm1): LayerNorm((128,), eps=1e-06, elementwise_affine=True)
            (attn): EfficientMultiheadAttention(
              (attn): MultiheadAttention(
                (out_proj): NonDynamicallyQuantizableLinear(in_features=128, out_features=128, bias=True)
              )
              (proj_drop): Dropout(p=0.0, inplace=False)
              (dropout_layer): DropPath()
              (sr): Conv2d(128, 128, kernel_size=(4, 4), stride=(4, 4))
              (norm): LayerNorm((128,), eps=1e-06, elementwise_affine=True)
            )
            (norm2): LayerNorm((128,), eps=1e-06, elementwise_affine=True)
            (ffn): MixFFN(
              (activate): GELU(approximate=none)
              (layers): Sequential(
                (0): Conv2d(128, 512, kernel_size=(1, 1), stride=(1, 1))
                (1): Conv2d(512, 512, kernel_size=(3, 3), stride=(1, 1), padding=(1, 1), groups=512)
                (2): GELU(approximate=none)
                (3): Dropout(p=0.0, inplace=False)
                (4): Conv2d(512, 128, kernel_size=(1, 1), stride=(1, 1))
                (5): Dropout(p=0.0, inplace=False)
              )
              (dropout_layer): DropPath()
            )
          )
          (6): TransformerEncoderLayer(
            (norm1): LayerNorm((128,), eps=1e-06, elementwise_affine=True)
            (attn): EfficientMultiheadAttention(
              (attn): MultiheadAttention(
                (out_proj): NonDynamicallyQuantizableLinear(in_features=128, out_features=128, bias=True)
              )
              (proj_drop): Dropout(p=0.0, inplace=False)
              (dropout_layer): DropPath()
              (sr): Conv2d(128, 128, kernel_size=(4, 4), stride=(4, 4))
              (norm): LayerNorm((128,), eps=1e-06, elementwise_affine=True)
            )
            (norm2): LayerNorm((128,), eps=1e-06, elementwise_affine=True)
            (ffn): MixFFN(
              (activate): GELU(approximate=none)
              (layers): Sequential(
                (0): Conv2d(128, 512, kernel_size=(1, 1), stride=(1, 1))
                (1): Conv2d(512, 512, kernel_size=(3, 3), stride=(1, 1), padding=(1, 1), groups=512)
                (2): GELU(approximate=none)
                (3): Dropout(p=0.0, inplace=False)
                (4): Conv2d(512, 128, kernel_size=(1, 1), stride=(1, 1))
                (5): Dropout(p=0.0, inplace=False)
              )
              (dropout_layer): DropPath()
            )
          )
          (7): TransformerEncoderLayer(
            (norm1): LayerNorm((128,), eps=1e-06, elementwise_affine=True)
            (attn): EfficientMultiheadAttention(
              (attn): MultiheadAttention(
                (out_proj): NonDynamicallyQuantizableLinear(in_features=128, out_features=128, bias=True)
              )
              (proj_drop): Dropout(p=0.0, inplace=False)
              (dropout_layer): DropPath()
              (sr): Conv2d(128, 128, kernel_size=(4, 4), stride=(4, 4))
              (norm): LayerNorm((128,), eps=1e-06, elementwise_affine=True)
            )
            (norm2): LayerNorm((128,), eps=1e-06, elementwise_affine=True)
            (ffn): MixFFN(
              (activate): GELU(approximate=none)
              (layers): Sequential(
                (0): Conv2d(128, 512, kernel_size=(1, 1), stride=(1, 1))
                (1): Conv2d(512, 512, kernel_size=(3, 3), stride=(1, 1), padding=(1, 1), groups=512)
                (2): GELU(approximate=none)
                (3): Dropout(p=0.0, inplace=False)
                (4): Conv2d(512, 128, kernel_size=(1, 1), stride=(1, 1))
                (5): Dropout(p=0.0, inplace=False)
              )
              (dropout_layer): DropPath()
            )
          )
        )
        (2): LayerNorm((128,), eps=1e-06, elementwise_affine=True)
      )
      (2): ModuleList(
        (0): PatchEmbed(
          (projection): Conv2d(128, 320, kernel_size=(3, 3), stride=(2, 2), padding=(1, 1))
          (norm): LayerNorm((320,), eps=1e-06, elementwise_affine=True)
        )
        (1): ModuleList(
          (0): TransformerEncoderLayer(
            (norm1): LayerNorm((320,), eps=1e-06, elementwise_affine=True)
            (attn): EfficientMultiheadAttention(
              (attn): MultiheadAttention(
                (out_proj): NonDynamicallyQuantizableLinear(in_features=320, out_features=320, bias=True)
              )
              (proj_drop): Dropout(p=0.0, inplace=False)
              (dropout_layer): DropPath()
              (sr): Conv2d(320, 320, kernel_size=(2, 2), stride=(2, 2))
              (norm): LayerNorm((320,), eps=1e-06, elementwise_affine=True)
            )
            (norm2): LayerNorm((320,), eps=1e-06, elementwise_affine=True)
            (ffn): MixFFN(
              (activate): GELU(approximate=none)
              (layers): Sequential(
                (0): Conv2d(320, 1280, kernel_size=(1, 1), stride=(1, 1))
                (1): Conv2d(1280, 1280, kernel_size=(3, 3), stride=(1, 1), padding=(1, 1), groups=1280)
                (2): GELU(approximate=none)
                (3): Dropout(p=0.0, inplace=False)
                (4): Conv2d(1280, 320, kernel_size=(1, 1), stride=(1, 1))
                (5): Dropout(p=0.0, inplace=False)
              )
              (dropout_layer): DropPath()
            )
          )
          (1): TransformerEncoderLayer(
            (norm1): LayerNorm((320,), eps=1e-06, elementwise_affine=True)
            (attn): EfficientMultiheadAttention(
              (attn): MultiheadAttention(
                (out_proj): NonDynamicallyQuantizableLinear(in_features=320, out_features=320, bias=True)
              )
              (proj_drop): Dropout(p=0.0, inplace=False)
              (dropout_layer): DropPath()
              (sr): Conv2d(320, 320, kernel_size=(2, 2), stride=(2, 2))
              (norm): LayerNorm((320,), eps=1e-06, elementwise_affine=True)
            )
            (norm2): LayerNorm((320,), eps=1e-06, elementwise_affine=True)
            (ffn): MixFFN(
              (activate): GELU(approximate=none)
              (layers): Sequential(
                (0): Conv2d(320, 1280, kernel_size=(1, 1), stride=(1, 1))
                (1): Conv2d(1280, 1280, kernel_size=(3, 3), stride=(1, 1), padding=(1, 1), groups=1280)
                (2): GELU(approximate=none)
                (3): Dropout(p=0.0, inplace=False)
                (4): Conv2d(1280, 320, kernel_size=(1, 1), stride=(1, 1))
                (5): Dropout(p=0.0, inplace=False)
              )
              (dropout_layer): DropPath()
            )
          )
          (2): TransformerEncoderLayer(
            (norm1): LayerNorm((320,), eps=1e-06, elementwise_affine=True)
            (attn): EfficientMultiheadAttention(
              (attn): MultiheadAttention(
                (out_proj): NonDynamicallyQuantizableLinear(in_features=320, out_features=320, bias=True)
              )
              (proj_drop): Dropout(p=0.0, inplace=False)
              (dropout_layer): DropPath()
              (sr): Conv2d(320, 320, kernel_size=(2, 2), stride=(2, 2))
              (norm): LayerNorm((320,), eps=1e-06, elementwise_affine=True)
            )
            (norm2): LayerNorm((320,), eps=1e-06, elementwise_affine=True)
            (ffn): MixFFN(
              (activate): GELU(approximate=none)
              (layers): Sequential(
                (0): Conv2d(320, 1280, kernel_size=(1, 1), stride=(1, 1))
                (1): Conv2d(1280, 1280, kernel_size=(3, 3), stride=(1, 1), padding=(1, 1), groups=1280)
                (2): GELU(approximate=none)
                (3): Dropout(p=0.0, inplace=False)
                (4): Conv2d(1280, 320, kernel_size=(1, 1), stride=(1, 1))
                (5): Dropout(p=0.0, inplace=False)
              )
              (dropout_layer): DropPath()
            )
          )
          (3): TransformerEncoderLayer(
            (norm1): LayerNorm((320,), eps=1e-06, elementwise_affine=True)
            (attn): EfficientMultiheadAttention(
              (attn): MultiheadAttention(
                (out_proj): NonDynamicallyQuantizableLinear(in_features=320, out_features=320, bias=True)
              )
              (proj_drop): Dropout(p=0.0, inplace=False)
              (dropout_layer): DropPath()
              (sr): Conv2d(320, 320, kernel_size=(2, 2), stride=(2, 2))
              (norm): LayerNorm((320,), eps=1e-06, elementwise_affine=True)
            )
            (norm2): LayerNorm((320,), eps=1e-06, elementwise_affine=True)
            (ffn): MixFFN(
              (activate): GELU(approximate=none)
              (layers): Sequential(
                (0): Conv2d(320, 1280, kernel_size=(1, 1), stride=(1, 1))
                (1): Conv2d(1280, 1280, kernel_size=(3, 3), stride=(1, 1), padding=(1, 1), groups=1280)
                (2): GELU(approximate=none)
                (3): Dropout(p=0.0, inplace=False)
                (4): Conv2d(1280, 320, kernel_size=(1, 1), stride=(1, 1))
                (5): Dropout(p=0.0, inplace=False)
              )
              (dropout_layer): DropPath()
            )
          )
          (4): TransformerEncoderLayer(
            (norm1): LayerNorm((320,), eps=1e-06, elementwise_affine=True)
            (attn): EfficientMultiheadAttention(
              (attn): MultiheadAttention(
                (out_proj): NonDynamicallyQuantizableLinear(in_features=320, out_features=320, bias=True)
              )
              (proj_drop): Dropout(p=0.0, inplace=False)
              (dropout_layer): DropPath()
              (sr): Conv2d(320, 320, kernel_size=(2, 2), stride=(2, 2))
              (norm): LayerNorm((320,), eps=1e-06, elementwise_affine=True)
            )
            (norm2): LayerNorm((320,), eps=1e-06, elementwise_affine=True)
            (ffn): MixFFN(
              (activate): GELU(approximate=none)
              (layers): Sequential(
                (0): Conv2d(320, 1280, kernel_size=(1, 1), stride=(1, 1))
                (1): Conv2d(1280, 1280, kernel_size=(3, 3), stride=(1, 1), padding=(1, 1), groups=1280)
                (2): GELU(approximate=none)
                (3): Dropout(p=0.0, inplace=False)
                (4): Conv2d(1280, 320, kernel_size=(1, 1), stride=(1, 1))
                (5): Dropout(p=0.0, inplace=False)
              )
              (dropout_layer): DropPath()
            )
          )
          (5): TransformerEncoderLayer(
            (norm1): LayerNorm((320,), eps=1e-06, elementwise_affine=True)
            (attn): EfficientMultiheadAttention(
              (attn): MultiheadAttention(
                (out_proj): NonDynamicallyQuantizableLinear(in_features=320, out_features=320, bias=True)
              )
              (proj_drop): Dropout(p=0.0, inplace=False)
              (dropout_layer): DropPath()
              (sr): Conv2d(320, 320, kernel_size=(2, 2), stride=(2, 2))
              (norm): LayerNorm((320,), eps=1e-06, elementwise_affine=True)
            )
            (norm2): LayerNorm((320,), eps=1e-06, elementwise_affine=True)
            (ffn): MixFFN(
              (activate): GELU(approximate=none)
              (layers): Sequential(
                (0): Conv2d(320, 1280, kernel_size=(1, 1), stride=(1, 1))
                (1): Conv2d(1280, 1280, kernel_size=(3, 3), stride=(1, 1), padding=(1, 1), groups=1280)
                (2): GELU(approximate=none)
                (3): Dropout(p=0.0, inplace=False)
                (4): Conv2d(1280, 320, kernel_size=(1, 1), stride=(1, 1))
                (5): Dropout(p=0.0, inplace=False)
              )
              (dropout_layer): DropPath()
            )
          )
          (6): TransformerEncoderLayer(
            (norm1): LayerNorm((320,), eps=1e-06, elementwise_affine=True)
            (attn): EfficientMultiheadAttention(
              (attn): MultiheadAttention(
                (out_proj): NonDynamicallyQuantizableLinear(in_features=320, out_features=320, bias=True)
              )
              (proj_drop): Dropout(p=0.0, inplace=False)
              (dropout_layer): DropPath()
              (sr): Conv2d(320, 320, kernel_size=(2, 2), stride=(2, 2))
              (norm): LayerNorm((320,), eps=1e-06, elementwise_affine=True)
            )
            (norm2): LayerNorm((320,), eps=1e-06, elementwise_affine=True)
            (ffn): MixFFN(
              (activate): GELU(approximate=none)
              (layers): Sequential(
                (0): Conv2d(320, 1280, kernel_size=(1, 1), stride=(1, 1))
                (1): Conv2d(1280, 1280, kernel_size=(3, 3), stride=(1, 1), padding=(1, 1), groups=1280)
                (2): GELU(approximate=none)
                (3): Dropout(p=0.0, inplace=False)
                (4): Conv2d(1280, 320, kernel_size=(1, 1), stride=(1, 1))
                (5): Dropout(p=0.0, inplace=False)
              )
              (dropout_layer): DropPath()
            )
          )
          (7): TransformerEncoderLayer(
            (norm1): LayerNorm((320,), eps=1e-06, elementwise_affine=True)
            (attn): EfficientMultiheadAttention(
              (attn): MultiheadAttention(
                (out_proj): NonDynamicallyQuantizableLinear(in_features=320, out_features=320, bias=True)
              )
              (proj_drop): Dropout(p=0.0, inplace=False)
              (dropout_layer): DropPath()
              (sr): Conv2d(320, 320, kernel_size=(2, 2), stride=(2, 2))
              (norm): LayerNorm((320,), eps=1e-06, elementwise_affine=True)
            )
            (norm2): LayerNorm((320,), eps=1e-06, elementwise_affine=True)
            (ffn): MixFFN(
              (activate): GELU(approximate=none)
              (layers): Sequential(
                (0): Conv2d(320, 1280, kernel_size=(1, 1), stride=(1, 1))
                (1): Conv2d(1280, 1280, kernel_size=(3, 3), stride=(1, 1), padding=(1, 1), groups=1280)
                (2): GELU(approximate=none)
                (3): Dropout(p=0.0, inplace=False)
                (4): Conv2d(1280, 320, kernel_size=(1, 1), stride=(1, 1))
                (5): Dropout(p=0.0, inplace=False)
              )
              (dropout_layer): DropPath()
            )
          )
          (8): TransformerEncoderLayer(
            (norm1): LayerNorm((320,), eps=1e-06, elementwise_affine=True)
            (attn): EfficientMultiheadAttention(
              (attn): MultiheadAttention(
                (out_proj): NonDynamicallyQuantizableLinear(in_features=320, out_features=320, bias=True)
              )
              (proj_drop): Dropout(p=0.0, inplace=False)
              (dropout_layer): DropPath()
              (sr): Conv2d(320, 320, kernel_size=(2, 2), stride=(2, 2))
              (norm): LayerNorm((320,), eps=1e-06, elementwise_affine=True)
            )
            (norm2): LayerNorm((320,), eps=1e-06, elementwise_affine=True)
            (ffn): MixFFN(
              (activate): GELU(approximate=none)
              (layers): Sequential(
                (0): Conv2d(320, 1280, kernel_size=(1, 1), stride=(1, 1))
                (1): Conv2d(1280, 1280, kernel_size=(3, 3), stride=(1, 1), padding=(1, 1), groups=1280)
                (2): GELU(approximate=none)
                (3): Dropout(p=0.0, inplace=False)
                (4): Conv2d(1280, 320, kernel_size=(1, 1), stride=(1, 1))
                (5): Dropout(p=0.0, inplace=False)
              )
              (dropout_layer): DropPath()
            )
          )
          (9): TransformerEncoderLayer(
            (norm1): LayerNorm((320,), eps=1e-06, elementwise_affine=True)
            (attn): EfficientMultiheadAttention(
              (attn): MultiheadAttention(
                (out_proj): NonDynamicallyQuantizableLinear(in_features=320, out_features=320, bias=True)
              )
              (proj_drop): Dropout(p=0.0, inplace=False)
              (dropout_layer): DropPath()
              (sr): Conv2d(320, 320, kernel_size=(2, 2), stride=(2, 2))
              (norm): LayerNorm((320,), eps=1e-06, elementwise_affine=True)
            )
            (norm2): LayerNorm((320,), eps=1e-06, elementwise_affine=True)
            (ffn): MixFFN(
              (activate): GELU(approximate=none)
              (layers): Sequential(
                (0): Conv2d(320, 1280, kernel_size=(1, 1), stride=(1, 1))
                (1): Conv2d(1280, 1280, kernel_size=(3, 3), stride=(1, 1), padding=(1, 1), groups=1280)
                (2): GELU(approximate=none)
                (3): Dropout(p=0.0, inplace=False)
                (4): Conv2d(1280, 320, kernel_size=(1, 1), stride=(1, 1))
                (5): Dropout(p=0.0, inplace=False)
              )
              (dropout_layer): DropPath()
            )
          )
          (10): TransformerEncoderLayer(
            (norm1): LayerNorm((320,), eps=1e-06, elementwise_affine=True)
            (attn): EfficientMultiheadAttention(
              (attn): MultiheadAttention(
                (out_proj): NonDynamicallyQuantizableLinear(in_features=320, out_features=320, bias=True)
              )
              (proj_drop): Dropout(p=0.0, inplace=False)
              (dropout_layer): DropPath()
              (sr): Conv2d(320, 320, kernel_size=(2, 2), stride=(2, 2))
              (norm): LayerNorm((320,), eps=1e-06, elementwise_affine=True)
            )
            (norm2): LayerNorm((320,), eps=1e-06, elementwise_affine=True)
            (ffn): MixFFN(
              (activate): GELU(approximate=none)
              (layers): Sequential(
                (0): Conv2d(320, 1280, kernel_size=(1, 1), stride=(1, 1))
                (1): Conv2d(1280, 1280, kernel_size=(3, 3), stride=(1, 1), padding=(1, 1), groups=1280)
                (2): GELU(approximate=none)
                (3): Dropout(p=0.0, inplace=False)
                (4): Conv2d(1280, 320, kernel_size=(1, 1), stride=(1, 1))
                (5): Dropout(p=0.0, inplace=False)
              )
              (dropout_layer): DropPath()
            )
          )
          (11): TransformerEncoderLayer(
            (norm1): LayerNorm((320,), eps=1e-06, elementwise_affine=True)
            (attn): EfficientMultiheadAttention(
              (attn): MultiheadAttention(
                (out_proj): NonDynamicallyQuantizableLinear(in_features=320, out_features=320, bias=True)
              )
              (proj_drop): Dropout(p=0.0, inplace=False)
              (dropout_layer): DropPath()
              (sr): Conv2d(320, 320, kernel_size=(2, 2), stride=(2, 2))
              (norm): LayerNorm((320,), eps=1e-06, elementwise_affine=True)
            )
            (norm2): LayerNorm((320,), eps=1e-06, elementwise_affine=True)
            (ffn): MixFFN(
              (activate): GELU(approximate=none)
              (layers): Sequential(
                (0): Conv2d(320, 1280, kernel_size=(1, 1), stride=(1, 1))
                (1): Conv2d(1280, 1280, kernel_size=(3, 3), stride=(1, 1), padding=(1, 1), groups=1280)
                (2): GELU(approximate=none)
                (3): Dropout(p=0.0, inplace=False)
                (4): Conv2d(1280, 320, kernel_size=(1, 1), stride=(1, 1))
                (5): Dropout(p=0.0, inplace=False)
              )
              (dropout_layer): DropPath()
            )
          )
          (12): TransformerEncoderLayer(
            (norm1): LayerNorm((320,), eps=1e-06, elementwise_affine=True)
            (attn): EfficientMultiheadAttention(
              (attn): MultiheadAttention(
                (out_proj): NonDynamicallyQuantizableLinear(in_features=320, out_features=320, bias=True)
              )
              (proj_drop): Dropout(p=0.0, inplace=False)
              (dropout_layer): DropPath()
              (sr): Conv2d(320, 320, kernel_size=(2, 2), stride=(2, 2))
              (norm): LayerNorm((320,), eps=1e-06, elementwise_affine=True)
            )
            (norm2): LayerNorm((320,), eps=1e-06, elementwise_affine=True)
            (ffn): MixFFN(
              (activate): GELU(approximate=none)
              (layers): Sequential(
                (0): Conv2d(320, 1280, kernel_size=(1, 1), stride=(1, 1))
                (1): Conv2d(1280, 1280, kernel_size=(3, 3), stride=(1, 1), padding=(1, 1), groups=1280)
                (2): GELU(approximate=none)
                (3): Dropout(p=0.0, inplace=False)
                (4): Conv2d(1280, 320, kernel_size=(1, 1), stride=(1, 1))
                (5): Dropout(p=0.0, inplace=False)
              )
              (dropout_layer): DropPath()
            )
          )
          (13): TransformerEncoderLayer(
            (norm1): LayerNorm((320,), eps=1e-06, elementwise_affine=True)
            (attn): EfficientMultiheadAttention(
              (attn): MultiheadAttention(
                (out_proj): NonDynamicallyQuantizableLinear(in_features=320, out_features=320, bias=True)
              )
              (proj_drop): Dropout(p=0.0, inplace=False)
              (dropout_layer): DropPath()
              (sr): Conv2d(320, 320, kernel_size=(2, 2), stride=(2, 2))
              (norm): LayerNorm((320,), eps=1e-06, elementwise_affine=True)
            )
            (norm2): LayerNorm((320,), eps=1e-06, elementwise_affine=True)
            (ffn): MixFFN(
              (activate): GELU(approximate=none)
              (layers): Sequential(
                (0): Conv2d(320, 1280, kernel_size=(1, 1), stride=(1, 1))
                (1): Conv2d(1280, 1280, kernel_size=(3, 3), stride=(1, 1), padding=(1, 1), groups=1280)
                (2): GELU(approximate=none)
                (3): Dropout(p=0.0, inplace=False)
                (4): Conv2d(1280, 320, kernel_size=(1, 1), stride=(1, 1))
                (5): Dropout(p=0.0, inplace=False)
              )
              (dropout_layer): DropPath()
            )
          )
          (14): TransformerEncoderLayer(
            (norm1): LayerNorm((320,), eps=1e-06, elementwise_affine=True)
            (attn): EfficientMultiheadAttention(
              (attn): MultiheadAttention(
                (out_proj): NonDynamicallyQuantizableLinear(in_features=320, out_features=320, bias=True)
              )
              (proj_drop): Dropout(p=0.0, inplace=False)
              (dropout_layer): DropPath()
              (sr): Conv2d(320, 320, kernel_size=(2, 2), stride=(2, 2))
              (norm): LayerNorm((320,), eps=1e-06, elementwise_affine=True)
            )
            (norm2): LayerNorm((320,), eps=1e-06, elementwise_affine=True)
            (ffn): MixFFN(
              (activate): GELU(approximate=none)
              (layers): Sequential(
                (0): Conv2d(320, 1280, kernel_size=(1, 1), stride=(1, 1))
                (1): Conv2d(1280, 1280, kernel_size=(3, 3), stride=(1, 1), padding=(1, 1), groups=1280)
                (2): GELU(approximate=none)
                (3): Dropout(p=0.0, inplace=False)
                (4): Conv2d(1280, 320, kernel_size=(1, 1), stride=(1, 1))
                (5): Dropout(p=0.0, inplace=False)
              )
              (dropout_layer): DropPath()
            )
          )
          (15): TransformerEncoderLayer(
            (norm1): LayerNorm((320,), eps=1e-06, elementwise_affine=True)
            (attn): EfficientMultiheadAttention(
              (attn): MultiheadAttention(
                (out_proj): NonDynamicallyQuantizableLinear(in_features=320, out_features=320, bias=True)
              )
              (proj_drop): Dropout(p=0.0, inplace=False)
              (dropout_layer): DropPath()
              (sr): Conv2d(320, 320, kernel_size=(2, 2), stride=(2, 2))
              (norm): LayerNorm((320,), eps=1e-06, elementwise_affine=True)
            )
            (norm2): LayerNorm((320,), eps=1e-06, elementwise_affine=True)
            (ffn): MixFFN(
              (activate): GELU(approximate=none)
              (layers): Sequential(
                (0): Conv2d(320, 1280, kernel_size=(1, 1), stride=(1, 1))
                (1): Conv2d(1280, 1280, kernel_size=(3, 3), stride=(1, 1), padding=(1, 1), groups=1280)
                (2): GELU(approximate=none)
                (3): Dropout(p=0.0, inplace=False)
                (4): Conv2d(1280, 320, kernel_size=(1, 1), stride=(1, 1))
                (5): Dropout(p=0.0, inplace=False)
              )
              (dropout_layer): DropPath()
            )
          )
          (16): TransformerEncoderLayer(
            (norm1): LayerNorm((320,), eps=1e-06, elementwise_affine=True)
            (attn): EfficientMultiheadAttention(
              (attn): MultiheadAttention(
                (out_proj): NonDynamicallyQuantizableLinear(in_features=320, out_features=320, bias=True)
              )
              (proj_drop): Dropout(p=0.0, inplace=False)
              (dropout_layer): DropPath()
              (sr): Conv2d(320, 320, kernel_size=(2, 2), stride=(2, 2))
              (norm): LayerNorm((320,), eps=1e-06, elementwise_affine=True)
            )
            (norm2): LayerNorm((320,), eps=1e-06, elementwise_affine=True)
            (ffn): MixFFN(
              (activate): GELU(approximate=none)
              (layers): Sequential(
                (0): Conv2d(320, 1280, kernel_size=(1, 1), stride=(1, 1))
                (1): Conv2d(1280, 1280, kernel_size=(3, 3), stride=(1, 1), padding=(1, 1), groups=1280)
                (2): GELU(approximate=none)
                (3): Dropout(p=0.0, inplace=False)
                (4): Conv2d(1280, 320, kernel_size=(1, 1), stride=(1, 1))
                (5): Dropout(p=0.0, inplace=False)
              )
              (dropout_layer): DropPath()
            )
          )
          (17): TransformerEncoderLayer(
            (norm1): LayerNorm((320,), eps=1e-06, elementwise_affine=True)
            (attn): EfficientMultiheadAttention(
              (attn): MultiheadAttention(
                (out_proj): NonDynamicallyQuantizableLinear(in_features=320, out_features=320, bias=True)
              )
              (proj_drop): Dropout(p=0.0, inplace=False)
              (dropout_layer): DropPath()
              (sr): Conv2d(320, 320, kernel_size=(2, 2), stride=(2, 2))
              (norm): LayerNorm((320,), eps=1e-06, elementwise_affine=True)
            )
            (norm2): LayerNorm((320,), eps=1e-06, elementwise_affine=True)
            (ffn): MixFFN(
              (activate): GELU(approximate=none)
              (layers): Sequential(
                (0): Conv2d(320, 1280, kernel_size=(1, 1), stride=(1, 1))
                (1): Conv2d(1280, 1280, kernel_size=(3, 3), stride=(1, 1), padding=(1, 1), groups=1280)
                (2): GELU(approximate=none)
                (3): Dropout(p=0.0, inplace=False)
                (4): Conv2d(1280, 320, kernel_size=(1, 1), stride=(1, 1))
                (5): Dropout(p=0.0, inplace=False)
              )
              (dropout_layer): DropPath()
            )
          )
          (18): TransformerEncoderLayer(
            (norm1): LayerNorm((320,), eps=1e-06, elementwise_affine=True)
            (attn): EfficientMultiheadAttention(
              (attn): MultiheadAttention(
                (out_proj): NonDynamicallyQuantizableLinear(in_features=320, out_features=320, bias=True)
              )
              (proj_drop): Dropout(p=0.0, inplace=False)
              (dropout_layer): DropPath()
              (sr): Conv2d(320, 320, kernel_size=(2, 2), stride=(2, 2))
              (norm): LayerNorm((320,), eps=1e-06, elementwise_affine=True)
            )
            (norm2): LayerNorm((320,), eps=1e-06, elementwise_affine=True)
            (ffn): MixFFN(
              (activate): GELU(approximate=none)
              (layers): Sequential(
                (0): Conv2d(320, 1280, kernel_size=(1, 1), stride=(1, 1))
                (1): Conv2d(1280, 1280, kernel_size=(3, 3), stride=(1, 1), padding=(1, 1), groups=1280)
                (2): GELU(approximate=none)
                (3): Dropout(p=0.0, inplace=False)
                (4): Conv2d(1280, 320, kernel_size=(1, 1), stride=(1, 1))
                (5): Dropout(p=0.0, inplace=False)
              )
              (dropout_layer): DropPath()
            )
          )
          (19): TransformerEncoderLayer(
            (norm1): LayerNorm((320,), eps=1e-06, elementwise_affine=True)
            (attn): EfficientMultiheadAttention(
              (attn): MultiheadAttention(
                (out_proj): NonDynamicallyQuantizableLinear(in_features=320, out_features=320, bias=True)
              )
              (proj_drop): Dropout(p=0.0, inplace=False)
              (dropout_layer): DropPath()
              (sr): Conv2d(320, 320, kernel_size=(2, 2), stride=(2, 2))
              (norm): LayerNorm((320,), eps=1e-06, elementwise_affine=True)
            )
            (norm2): LayerNorm((320,), eps=1e-06, elementwise_affine=True)
            (ffn): MixFFN(
              (activate): GELU(approximate=none)
              (layers): Sequential(
                (0): Conv2d(320, 1280, kernel_size=(1, 1), stride=(1, 1))
                (1): Conv2d(1280, 1280, kernel_size=(3, 3), stride=(1, 1), padding=(1, 1), groups=1280)
                (2): GELU(approximate=none)
                (3): Dropout(p=0.0, inplace=False)
                (4): Conv2d(1280, 320, kernel_size=(1, 1), stride=(1, 1))
                (5): Dropout(p=0.0, inplace=False)
              )
              (dropout_layer): DropPath()
            )
          )
          (20): TransformerEncoderLayer(
            (norm1): LayerNorm((320,), eps=1e-06, elementwise_affine=True)
            (attn): EfficientMultiheadAttention(
              (attn): MultiheadAttention(
                (out_proj): NonDynamicallyQuantizableLinear(in_features=320, out_features=320, bias=True)
              )
              (proj_drop): Dropout(p=0.0, inplace=False)
              (dropout_layer): DropPath()
              (sr): Conv2d(320, 320, kernel_size=(2, 2), stride=(2, 2))
              (norm): LayerNorm((320,), eps=1e-06, elementwise_affine=True)
            )
            (norm2): LayerNorm((320,), eps=1e-06, elementwise_affine=True)
            (ffn): MixFFN(
              (activate): GELU(approximate=none)
              (layers): Sequential(
                (0): Conv2d(320, 1280, kernel_size=(1, 1), stride=(1, 1))
                (1): Conv2d(1280, 1280, kernel_size=(3, 3), stride=(1, 1), padding=(1, 1), groups=1280)
                (2): GELU(approximate=none)
                (3): Dropout(p=0.0, inplace=False)
                (4): Conv2d(1280, 320, kernel_size=(1, 1), stride=(1, 1))
                (5): Dropout(p=0.0, inplace=False)
              )
              (dropout_layer): DropPath()
            )
          )
          (21): TransformerEncoderLayer(
            (norm1): LayerNorm((320,), eps=1e-06, elementwise_affine=True)
            (attn): EfficientMultiheadAttention(
              (attn): MultiheadAttention(
                (out_proj): NonDynamicallyQuantizableLinear(in_features=320, out_features=320, bias=True)
              )
              (proj_drop): Dropout(p=0.0, inplace=False)
              (dropout_layer): DropPath()
              (sr): Conv2d(320, 320, kernel_size=(2, 2), stride=(2, 2))
              (norm): LayerNorm((320,), eps=1e-06, elementwise_affine=True)
            )
            (norm2): LayerNorm((320,), eps=1e-06, elementwise_affine=True)
            (ffn): MixFFN(
              (activate): GELU(approximate=none)
              (layers): Sequential(
                (0): Conv2d(320, 1280, kernel_size=(1, 1), stride=(1, 1))
                (1): Conv2d(1280, 1280, kernel_size=(3, 3), stride=(1, 1), padding=(1, 1), groups=1280)
                (2): GELU(approximate=none)
                (3): Dropout(p=0.0, inplace=False)
                (4): Conv2d(1280, 320, kernel_size=(1, 1), stride=(1, 1))
                (5): Dropout(p=0.0, inplace=False)
              )
              (dropout_layer): DropPath()
            )
          )
          (22): TransformerEncoderLayer(
            (norm1): LayerNorm((320,), eps=1e-06, elementwise_affine=True)
            (attn): EfficientMultiheadAttention(
              (attn): MultiheadAttention(
                (out_proj): NonDynamicallyQuantizableLinear(in_features=320, out_features=320, bias=True)
              )
              (proj_drop): Dropout(p=0.0, inplace=False)
              (dropout_layer): DropPath()
              (sr): Conv2d(320, 320, kernel_size=(2, 2), stride=(2, 2))
              (norm): LayerNorm((320,), eps=1e-06, elementwise_affine=True)
            )
            (norm2): LayerNorm((320,), eps=1e-06, elementwise_affine=True)
            (ffn): MixFFN(
              (activate): GELU(approximate=none)
              (layers): Sequential(
                (0): Conv2d(320, 1280, kernel_size=(1, 1), stride=(1, 1))
                (1): Conv2d(1280, 1280, kernel_size=(3, 3), stride=(1, 1), padding=(1, 1), groups=1280)
                (2): GELU(approximate=none)
                (3): Dropout(p=0.0, inplace=False)
                (4): Conv2d(1280, 320, kernel_size=(1, 1), stride=(1, 1))
                (5): Dropout(p=0.0, inplace=False)
              )
              (dropout_layer): DropPath()
            )
          )
          (23): TransformerEncoderLayer(
            (norm1): LayerNorm((320,), eps=1e-06, elementwise_affine=True)
            (attn): EfficientMultiheadAttention(
              (attn): MultiheadAttention(
                (out_proj): NonDynamicallyQuantizableLinear(in_features=320, out_features=320, bias=True)
              )
              (proj_drop): Dropout(p=0.0, inplace=False)
              (dropout_layer): DropPath()
              (sr): Conv2d(320, 320, kernel_size=(2, 2), stride=(2, 2))
              (norm): LayerNorm((320,), eps=1e-06, elementwise_affine=True)
            )
            (norm2): LayerNorm((320,), eps=1e-06, elementwise_affine=True)
            (ffn): MixFFN(
              (activate): GELU(approximate=none)
              (layers): Sequential(
                (0): Conv2d(320, 1280, kernel_size=(1, 1), stride=(1, 1))
                (1): Conv2d(1280, 1280, kernel_size=(3, 3), stride=(1, 1), padding=(1, 1), groups=1280)
                (2): GELU(approximate=none)
                (3): Dropout(p=0.0, inplace=False)
                (4): Conv2d(1280, 320, kernel_size=(1, 1), stride=(1, 1))
                (5): Dropout(p=0.0, inplace=False)
              )
              (dropout_layer): DropPath()
            )
          )
          (24): TransformerEncoderLayer(
            (norm1): LayerNorm((320,), eps=1e-06, elementwise_affine=True)
            (attn): EfficientMultiheadAttention(
              (attn): MultiheadAttention(
                (out_proj): NonDynamicallyQuantizableLinear(in_features=320, out_features=320, bias=True)
              )
              (proj_drop): Dropout(p=0.0, inplace=False)
              (dropout_layer): DropPath()
              (sr): Conv2d(320, 320, kernel_size=(2, 2), stride=(2, 2))
              (norm): LayerNorm((320,), eps=1e-06, elementwise_affine=True)
            )
            (norm2): LayerNorm((320,), eps=1e-06, elementwise_affine=True)
            (ffn): MixFFN(
              (activate): GELU(approximate=none)
              (layers): Sequential(
                (0): Conv2d(320, 1280, kernel_size=(1, 1), stride=(1, 1))
                (1): Conv2d(1280, 1280, kernel_size=(3, 3), stride=(1, 1), padding=(1, 1), groups=1280)
                (2): GELU(approximate=none)
                (3): Dropout(p=0.0, inplace=False)
                (4): Conv2d(1280, 320, kernel_size=(1, 1), stride=(1, 1))
                (5): Dropout(p=0.0, inplace=False)
              )
              (dropout_layer): DropPath()
            )
          )
          (25): TransformerEncoderLayer(
            (norm1): LayerNorm((320,), eps=1e-06, elementwise_affine=True)
            (attn): EfficientMultiheadAttention(
              (attn): MultiheadAttention(
                (out_proj): NonDynamicallyQuantizableLinear(in_features=320, out_features=320, bias=True)
              )
              (proj_drop): Dropout(p=0.0, inplace=False)
              (dropout_layer): DropPath()
              (sr): Conv2d(320, 320, kernel_size=(2, 2), stride=(2, 2))
              (norm): LayerNorm((320,), eps=1e-06, elementwise_affine=True)
            )
            (norm2): LayerNorm((320,), eps=1e-06, elementwise_affine=True)
            (ffn): MixFFN(
              (activate): GELU(approximate=none)
              (layers): Sequential(
                (0): Conv2d(320, 1280, kernel_size=(1, 1), stride=(1, 1))
                (1): Conv2d(1280, 1280, kernel_size=(3, 3), stride=(1, 1), padding=(1, 1), groups=1280)
                (2): GELU(approximate=none)
                (3): Dropout(p=0.0, inplace=False)
                (4): Conv2d(1280, 320, kernel_size=(1, 1), stride=(1, 1))
                (5): Dropout(p=0.0, inplace=False)
              )
              (dropout_layer): DropPath()
            )
          )
          (26): TransformerEncoderLayer(
            (norm1): LayerNorm((320,), eps=1e-06, elementwise_affine=True)
            (attn): EfficientMultiheadAttention(
              (attn): MultiheadAttention(
                (out_proj): NonDynamicallyQuantizableLinear(in_features=320, out_features=320, bias=True)
              )
              (proj_drop): Dropout(p=0.0, inplace=False)
              (dropout_layer): DropPath()
              (sr): Conv2d(320, 320, kernel_size=(2, 2), stride=(2, 2))
              (norm): LayerNorm((320,), eps=1e-06, elementwise_affine=True)
            )
            (norm2): LayerNorm((320,), eps=1e-06, elementwise_affine=True)
            (ffn): MixFFN(
              (activate): GELU(approximate=none)
              (layers): Sequential(
                (0): Conv2d(320, 1280, kernel_size=(1, 1), stride=(1, 1))
                (1): Conv2d(1280, 1280, kernel_size=(3, 3), stride=(1, 1), padding=(1, 1), groups=1280)
                (2): GELU(approximate=none)
                (3): Dropout(p=0.0, inplace=False)
                (4): Conv2d(1280, 320, kernel_size=(1, 1), stride=(1, 1))
                (5): Dropout(p=0.0, inplace=False)
              )
              (dropout_layer): DropPath()
            )
          )
        )
        (2): LayerNorm((320,), eps=1e-06, elementwise_affine=True)
      )
      (3): ModuleList(
        (0): PatchEmbed(
          (projection): Conv2d(320, 512, kernel_size=(3, 3), stride=(2, 2), padding=(1, 1))
          (norm): LayerNorm((512,), eps=1e-06, elementwise_affine=True)
        )
        (1): ModuleList(
          (0): TransformerEncoderLayer(
            (norm1): LayerNorm((512,), eps=1e-06, elementwise_affine=True)
            (attn): EfficientMultiheadAttention(
              (attn): MultiheadAttention(
                (out_proj): NonDynamicallyQuantizableLinear(in_features=512, out_features=512, bias=True)
              )
              (proj_drop): Dropout(p=0.0, inplace=False)
              (dropout_layer): DropPath()
            )
            (norm2): LayerNorm((512,), eps=1e-06, elementwise_affine=True)
            (ffn): MixFFN(
              (activate): GELU(approximate=none)
              (layers): Sequential(
                (0): Conv2d(512, 2048, kernel_size=(1, 1), stride=(1, 1))
                (1): Conv2d(2048, 2048, kernel_size=(3, 3), stride=(1, 1), padding=(1, 1), groups=2048)
                (2): GELU(approximate=none)
                (3): Dropout(p=0.0, inplace=False)
                (4): Conv2d(2048, 512, kernel_size=(1, 1), stride=(1, 1))
                (5): Dropout(p=0.0, inplace=False)
              )
              (dropout_layer): DropPath()
            )
          )
          (1): TransformerEncoderLayer(
            (norm1): LayerNorm((512,), eps=1e-06, elementwise_affine=True)
            (attn): EfficientMultiheadAttention(
              (attn): MultiheadAttention(
                (out_proj): NonDynamicallyQuantizableLinear(in_features=512, out_features=512, bias=True)
              )
              (proj_drop): Dropout(p=0.0, inplace=False)
              (dropout_layer): DropPath()
            )
            (norm2): LayerNorm((512,), eps=1e-06, elementwise_affine=True)
            (ffn): MixFFN(
              (activate): GELU(approximate=none)
              (layers): Sequential(
                (0): Conv2d(512, 2048, kernel_size=(1, 1), stride=(1, 1))
                (1): Conv2d(2048, 2048, kernel_size=(3, 3), stride=(1, 1), padding=(1, 1), groups=2048)
                (2): GELU(approximate=none)
                (3): Dropout(p=0.0, inplace=False)
                (4): Conv2d(2048, 512, kernel_size=(1, 1), stride=(1, 1))
                (5): Dropout(p=0.0, inplace=False)
              )
              (dropout_layer): DropPath()
            )
          )
          (2): TransformerEncoderLayer(
            (norm1): LayerNorm((512,), eps=1e-06, elementwise_affine=True)
            (attn): EfficientMultiheadAttention(
              (attn): MultiheadAttention(
                (out_proj): NonDynamicallyQuantizableLinear(in_features=512, out_features=512, bias=True)
              )
              (proj_drop): Dropout(p=0.0, inplace=False)
              (dropout_layer): DropPath()
            )
            (norm2): LayerNorm((512,), eps=1e-06, elementwise_affine=True)
            (ffn): MixFFN(
              (activate): GELU(approximate=none)
              (layers): Sequential(
                (0): Conv2d(512, 2048, kernel_size=(1, 1), stride=(1, 1))
                (1): Conv2d(2048, 2048, kernel_size=(3, 3), stride=(1, 1), padding=(1, 1), groups=2048)
                (2): GELU(approximate=none)
                (3): Dropout(p=0.0, inplace=False)
                (4): Conv2d(2048, 512, kernel_size=(1, 1), stride=(1, 1))
                (5): Dropout(p=0.0, inplace=False)
              )
              (dropout_layer): DropPath()
            )
          )
        )
        (2): LayerNorm((512,), eps=1e-06, elementwise_affine=True)
      )
    )
  )
  init_cfg={'type': 'Pretrained', 'checkpoint': 'https://download.openmmlab.com/mmsegmentation/v0.5/pretrain/segformer/mit_b4_20220624-d588d980.pth'}
  (decode_head): SegformerHead(
    input_transform=multiple_select, ignore_index=255, align_corners=False
    (loss_decode): CrossEntropyLoss(avg_non_ignore=False)
    (conv_seg): Conv2d(256, 2, kernel_size=(1, 1), stride=(1, 1))
    (dropout): Dropout2d(p=0.1, inplace=False)
    (convs): ModuleList(
      (0): ConvModule(
        (conv): Conv2d(64, 256, kernel_size=(1, 1), stride=(1, 1), bias=False)
        (bn): BatchNorm2d(256, eps=1e-05, momentum=0.1, affine=True, track_running_stats=True)
        (activate): ReLU(inplace=True)
      )
      (1): ConvModule(
        (conv): Conv2d(128, 256, kernel_size=(1, 1), stride=(1, 1), bias=False)
        (bn): BatchNorm2d(256, eps=1e-05, momentum=0.1, affine=True, track_running_stats=True)
        (activate): ReLU(inplace=True)
      )
      (2): ConvModule(
        (conv): Conv2d(320, 256, kernel_size=(1, 1), stride=(1, 1), bias=False)
        (bn): BatchNorm2d(256, eps=1e-05, momentum=0.1, affine=True, track_running_stats=True)
        (activate): ReLU(inplace=True)
      )
      (3): ConvModule(
        (conv): Conv2d(512, 256, kernel_size=(1, 1), stride=(1, 1), bias=False)
        (bn): BatchNorm2d(256, eps=1e-05, momentum=0.1, affine=True, track_running_stats=True)
        (activate): ReLU(inplace=True)
      )
    )
    (fusion_conv): ConvModule(
      (conv): Conv2d(1024, 256, kernel_size=(1, 1), stride=(1, 1), bias=False)
      (bn): BatchNorm2d(256, eps=1e-05, momentum=0.1, affine=True, track_running_stats=True)
      (activate): ReLU(inplace=True)
    )
  )
  init_cfg={'type': 'Normal', 'std': 0.01, 'override': {'name': 'conv_seg'}}
)
2022-10-06 08:33:57,962 - mmseg - INFO - Loaded 2296 images
2022-10-06 08:33:58,045 - mmseg - INFO - Loaded 764 images
2022-10-06 08:34:04,496 - mmseg - INFO - Loaded 764 images
2022-10-06 08:34:04,497 - mmseg - INFO - Start running, host: kcarvajal@nukwa-05.cnca, work_dir: /work/kcarvajal/mmsegmentation_Nematodos/work_dirs/segformerb4_base
…
