…
MB/s]100%|██████████| 1.13G/1.13G [02:35<00:00, 7.83MB/s]
2022-09-21 17:25:19,776 - mmseg - INFO - Resize the pos_embed shape from torch.Size([1, 577, 1024]) to torch.Size([1, 1601, 1024])
train.py:207: UserWarning: SyncBN is only supported with DDP. To be compatible with DP, we convert SyncBN to BN. Please use dist_train.sh which can avoid this error.
  'SyncBN is only supported with DDP. To be compatible with DP, '
2022-09-21 17:25:21,250 - mmseg - INFO - EncoderDecoder(
  (backbone): VisionTransformer(
    (patch_embed): PatchEmbed(
      (adap_padding): AdaptivePadding()
      (projection): Conv2d(3, 1024, kernel_size=(16, 16), stride=(16, 16))
    )
    (drop_after_pos): Dropout(p=0.0, inplace=False)
    (layers): ModuleList(
      (0): TransformerEncoderLayer(
        (ln1): LayerNorm((1024,), eps=1e-06, elementwise_affine=True)
        (attn): MultiheadAttention(
          (attn): MultiheadAttention(
            (out_proj): NonDynamicallyQuantizableLinear(in_features=1024, out_features=1024, bias=True)
          )
          (proj_drop): Dropout(p=0.0, inplace=False)
          (dropout_layer): Dropout(p=0.0, inplace=False)
        )
        (ln2): LayerNorm((1024,), eps=1e-06, elementwise_affine=True)
        (ffn): FFN(
          (activate): GELU(approximate=none)
          (layers): Sequential(
            (0): Sequential(
              (0): Linear(in_features=1024, out_features=4096, bias=True)
              (1): GELU(approximate=none)
              (2): Dropout(p=0.0, inplace=False)
            )
            (1): Linear(in_features=4096, out_features=1024, bias=True)
            (2): Dropout(p=0.0, inplace=False)
          )
          (dropout_layer): Identity()
        )
      )
      (1): TransformerEncoderLayer(
        (ln1): LayerNorm((1024,), eps=1e-06, elementwise_affine=True)
        (attn): MultiheadAttention(
          (attn): MultiheadAttention(
            (out_proj): NonDynamicallyQuantizableLinear(in_features=1024, out_features=1024, bias=True)
          )
          (proj_drop): Dropout(p=0.0, inplace=False)
          (dropout_layer): Dropout(p=0.0, inplace=False)
        )
        (ln2): LayerNorm((1024,), eps=1e-06, elementwise_affine=True)
        (ffn): FFN(
          (activate): GELU(approximate=none)
          (layers): Sequential(
            (0): Sequential(
              (0): Linear(in_features=1024, out_features=4096, bias=True)
              (1): GELU(approximate=none)
              (2): Dropout(p=0.0, inplace=False)
            )
            (1): Linear(in_features=4096, out_features=1024, bias=True)
            (2): Dropout(p=0.0, inplace=False)
          )
          (dropout_layer): DropPath()
        )
      )
      (2): TransformerEncoderLayer(
        (ln1): LayerNorm((1024,), eps=1e-06, elementwise_affine=True)
        (attn): MultiheadAttention(
          (attn): MultiheadAttention(
            (out_proj): NonDynamicallyQuantizableLinear(in_features=1024, out_features=1024, bias=True)
          )
          (proj_drop): Dropout(p=0.0, inplace=False)
          (dropout_layer): Dropout(p=0.0, inplace=False)
        )
        (ln2): LayerNorm((1024,), eps=1e-06, elementwise_affine=True)
        (ffn): FFN(
          (activate): GELU(approximate=none)
          (layers): Sequential(
            (0): Sequential(
              (0): Linear(in_features=1024, out_features=4096, bias=True)
              (1): GELU(approximate=none)
              (2): Dropout(p=0.0, inplace=False)
            )
            (1): Linear(in_features=4096, out_features=1024, bias=True)
            (2): Dropout(p=0.0, inplace=False)
          )
          (dropout_layer): DropPath()
        )
      )
      (3): TransformerEncoderLayer(
        (ln1): LayerNorm((1024,), eps=1e-06, elementwise_affine=True)
        (attn): MultiheadAttention(
          (attn): MultiheadAttention(
            (out_proj): NonDynamicallyQuantizableLinear(in_features=1024, out_features=1024, bias=True)
          )
          (proj_drop): Dropout(p=0.0, inplace=False)
          (dropout_layer): Dropout(p=0.0, inplace=False)
        )
        (ln2): LayerNorm((1024,), eps=1e-06, elementwise_affine=True)
        (ffn): FFN(
          (activate): GELU(approximate=none)
          (layers): Sequential(
            (0): Sequential(
              (0): Linear(in_features=1024, out_features=4096, bias=True)
              (1): GELU(approximate=none)
              (2): Dropout(p=0.0, inplace=False)
            )
            (1): Linear(in_features=4096, out_features=1024, bias=True)
            (2): Dropout(p=0.0, inplace=False)
          )
          (dropout_layer): DropPath()
        )
      )
      (4): TransformerEncoderLayer(
        (ln1): LayerNorm((1024,), eps=1e-06, elementwise_affine=True)
        (attn): MultiheadAttention(
          (attn): MultiheadAttention(
            (out_proj): NonDynamicallyQuantizableLinear(in_features=1024, out_features=1024, bias=True)
          )
          (proj_drop): Dropout(p=0.0, inplace=False)
          (dropout_layer): Dropout(p=0.0, inplace=False)
        )
        (ln2): LayerNorm((1024,), eps=1e-06, elementwise_affine=True)
        (ffn): FFN(
          (activate): GELU(approximate=none)
          (layers): Sequential(
            (0): Sequential(
              (0): Linear(in_features=1024, out_features=4096, bias=True)
              (1): GELU(approximate=none)
              (2): Dropout(p=0.0, inplace=False)
            )
            (1): Linear(in_features=4096, out_features=1024, bias=True)
            (2): Dropout(p=0.0, inplace=False)
          )
          (dropout_layer): DropPath()
        )
      )
      (5): TransformerEncoderLayer(
        (ln1): LayerNorm((1024,), eps=1e-06, elementwise_affine=True)
        (attn): MultiheadAttention(
          (attn): MultiheadAttention(
            (out_proj): NonDynamicallyQuantizableLinear(in_features=1024, out_features=1024, bias=True)
          )
          (proj_drop): Dropout(p=0.0, inplace=False)
          (dropout_layer): Dropout(p=0.0, inplace=False)
        )
        (ln2): LayerNorm((1024,), eps=1e-06, elementwise_affine=True)
        (ffn): FFN(
          (activate): GELU(approximate=none)
          (layers): Sequential(
            (0): Sequential(
              (0): Linear(in_features=1024, out_features=4096, bias=True)
              (1): GELU(approximate=none)
              (2): Dropout(p=0.0, inplace=False)
            )
            (1): Linear(in_features=4096, out_features=1024, bias=True)
            (2): Dropout(p=0.0, inplace=False)
          )
          (dropout_layer): DropPath()
        )
      )
      (6): TransformerEncoderLayer(
        (ln1): LayerNorm((1024,), eps=1e-06, elementwise_affine=True)
        (attn): MultiheadAttention(
          (attn): MultiheadAttention(
            (out_proj): NonDynamicallyQuantizableLinear(in_features=1024, out_features=1024, bias=True)
          )
          (proj_drop): Dropout(p=0.0, inplace=False)
          (dropout_layer): Dropout(p=0.0, inplace=False)
        )
        (ln2): LayerNorm((1024,), eps=1e-06, elementwise_affine=True)
        (ffn): FFN(
          (activate): GELU(approximate=none)
          (layers): Sequential(
            (0): Sequential(
              (0): Linear(in_features=1024, out_features=4096, bias=True)
              (1): GELU(approximate=none)
              (2): Dropout(p=0.0, inplace=False)
            )
            (1): Linear(in_features=4096, out_features=1024, bias=True)
            (2): Dropout(p=0.0, inplace=False)
          )
          (dropout_layer): DropPath()
        )
      )
      (7): TransformerEncoderLayer(
        (ln1): LayerNorm((1024,), eps=1e-06, elementwise_affine=True)
        (attn): MultiheadAttention(
          (attn): MultiheadAttention(
            (out_proj): NonDynamicallyQuantizableLinear(in_features=1024, out_features=1024, bias=True)
          )
          (proj_drop): Dropout(p=0.0, inplace=False)
          (dropout_layer): Dropout(p=0.0, inplace=False)
        )
        (ln2): LayerNorm((1024,), eps=1e-06, elementwise_affine=True)
        (ffn): FFN(
          (activate): GELU(approximate=none)
          (layers): Sequential(
            (0): Sequential(
              (0): Linear(in_features=1024, out_features=4096, bias=True)
              (1): GELU(approximate=none)
              (2): Dropout(p=0.0, inplace=False)
            )
            (1): Linear(in_features=4096, out_features=1024, bias=True)
            (2): Dropout(p=0.0, inplace=False)
          )
          (dropout_layer): DropPath()
        )
      )
      (8): TransformerEncoderLayer(
        (ln1): LayerNorm((1024,), eps=1e-06, elementwise_affine=True)
        (attn): MultiheadAttention(
          (attn): MultiheadAttention(
            (out_proj): NonDynamicallyQuantizableLinear(in_features=1024, out_features=1024, bias=True)
          )
          (proj_drop): Dropout(p=0.0, inplace=False)
          (dropout_layer): Dropout(p=0.0, inplace=False)
        )
        (ln2): LayerNorm((1024,), eps=1e-06, elementwise_affine=True)
        (ffn): FFN(
          (activate): GELU(approximate=none)
          (layers): Sequential(
            (0): Sequential(
              (0): Linear(in_features=1024, out_features=4096, bias=True)
              (1): GELU(approximate=none)
              (2): Dropout(p=0.0, inplace=False)
            )
            (1): Linear(in_features=4096, out_features=1024, bias=True)
            (2): Dropout(p=0.0, inplace=False)
          )
          (dropout_layer): DropPath()
        )
      )
      (9): TransformerEncoderLayer(
        (ln1): LayerNorm((1024,), eps=1e-06, elementwise_affine=True)
        (attn): MultiheadAttention(
          (attn): MultiheadAttention(
            (out_proj): NonDynamicallyQuantizableLinear(in_features=1024, out_features=1024, bias=True)
          )
          (proj_drop): Dropout(p=0.0, inplace=False)
          (dropout_layer): Dropout(p=0.0, inplace=False)
        )
        (ln2): LayerNorm((1024,), eps=1e-06, elementwise_affine=True)
        (ffn): FFN(
          (activate): GELU(approximate=none)
          (layers): Sequential(
            (0): Sequential(
              (0): Linear(in_features=1024, out_features=4096, bias=True)
              (1): GELU(approximate=none)
              (2): Dropout(p=0.0, inplace=False)
            )
            (1): Linear(in_features=4096, out_features=1024, bias=True)
            (2): Dropout(p=0.0, inplace=False)
          )
          (dropout_layer): DropPath()
        )
      )
      (10): TransformerEncoderLayer(
        (ln1): LayerNorm((1024,), eps=1e-06, elementwise_affine=True)
        (attn): MultiheadAttention(
          (attn): MultiheadAttention(
            (out_proj): NonDynamicallyQuantizableLinear(in_features=1024, out_features=1024, bias=True)
          )
          (proj_drop): Dropout(p=0.0, inplace=False)
          (dropout_layer): Dropout(p=0.0, inplace=False)
        )
        (ln2): LayerNorm((1024,), eps=1e-06, elementwise_affine=True)
        (ffn): FFN(
          (activate): GELU(approximate=none)
          (layers): Sequential(
            (0): Sequential(
              (0): Linear(in_features=1024, out_features=4096, bias=True)
              (1): GELU(approximate=none)
              (2): Dropout(p=0.0, inplace=False)
            )
            (1): Linear(in_features=4096, out_features=1024, bias=True)
            (2): Dropout(p=0.0, inplace=False)
          )
          (dropout_layer): DropPath()
        )
      )
      (11): TransformerEncoderLayer(
        (ln1): LayerNorm((1024,), eps=1e-06, elementwise_affine=True)
        (attn): MultiheadAttention(
          (attn): MultiheadAttention(
            (out_proj): NonDynamicallyQuantizableLinear(in_features=1024, out_features=1024, bias=True)
          )
          (proj_drop): Dropout(p=0.0, inplace=False)
          (dropout_layer): Dropout(p=0.0, inplace=False)
        )
        (ln2): LayerNorm((1024,), eps=1e-06, elementwise_affine=True)
        (ffn): FFN(
          (activate): GELU(approximate=none)
          (layers): Sequential(
            (0): Sequential(
              (0): Linear(in_features=1024, out_features=4096, bias=True)
              (1): GELU(approximate=none)
              (2): Dropout(p=0.0, inplace=False)
            )
            (1): Linear(in_features=4096, out_features=1024, bias=True)
            (2): Dropout(p=0.0, inplace=False)
          )
          (dropout_layer): DropPath()
        )
      )
      (12): TransformerEncoderLayer(
        (ln1): LayerNorm((1024,), eps=1e-06, elementwise_affine=True)
        (attn): MultiheadAttention(
          (attn): MultiheadAttention(
            (out_proj): NonDynamicallyQuantizableLinear(in_features=1024, out_features=1024, bias=True)
          )
          (proj_drop): Dropout(p=0.0, inplace=False)
          (dropout_layer): Dropout(p=0.0, inplace=False)
        )
        (ln2): LayerNorm((1024,), eps=1e-06, elementwise_affine=True)
        (ffn): FFN(
          (activate): GELU(approximate=none)
          (layers): Sequential(
            (0): Sequential(
              (0): Linear(in_features=1024, out_features=4096, bias=True)
              (1): GELU(approximate=none)
              (2): Dropout(p=0.0, inplace=False)
            )
            (1): Linear(in_features=4096, out_features=1024, bias=True)
            (2): Dropout(p=0.0, inplace=False)
          )
          (dropout_layer): DropPath()
        )
      )
      (13): TransformerEncoderLayer(
        (ln1): LayerNorm((1024,), eps=1e-06, elementwise_affine=True)
        (attn): MultiheadAttention(
          (attn): MultiheadAttention(
            (out_proj): NonDynamicallyQuantizableLinear(in_features=1024, out_features=1024, bias=True)
          )
          (proj_drop): Dropout(p=0.0, inplace=False)
          (dropout_layer): Dropout(p=0.0, inplace=False)
        )
        (ln2): LayerNorm((1024,), eps=1e-06, elementwise_affine=True)
        (ffn): FFN(
          (activate): GELU(approximate=none)
          (layers): Sequential(
            (0): Sequential(
              (0): Linear(in_features=1024, out_features=4096, bias=True)
              (1): GELU(approximate=none)
              (2): Dropout(p=0.0, inplace=False)
            )
            (1): Linear(in_features=4096, out_features=1024, bias=True)
            (2): Dropout(p=0.0, inplace=False)
          )
          (dropout_layer): DropPath()
        )
      )
      (14): TransformerEncoderLayer(
        (ln1): LayerNorm((1024,), eps=1e-06, elementwise_affine=True)
        (attn): MultiheadAttention(
          (attn): MultiheadAttention(
            (out_proj): NonDynamicallyQuantizableLinear(in_features=1024, out_features=1024, bias=True)
          )
          (proj_drop): Dropout(p=0.0, inplace=False)
          (dropout_layer): Dropout(p=0.0, inplace=False)
        )
        (ln2): LayerNorm((1024,), eps=1e-06, elementwise_affine=True)
        (ffn): FFN(
          (activate): GELU(approximate=none)
          (layers): Sequential(
            (0): Sequential(
              (0): Linear(in_features=1024, out_features=4096, bias=True)
              (1): GELU(approximate=none)
              (2): Dropout(p=0.0, inplace=False)
            )
            (1): Linear(in_features=4096, out_features=1024, bias=True)
            (2): Dropout(p=0.0, inplace=False)
          )
          (dropout_layer): DropPath()
        )
      )
      (15): TransformerEncoderLayer(
        (ln1): LayerNorm((1024,), eps=1e-06, elementwise_affine=True)
        (attn): MultiheadAttention(
          (attn): MultiheadAttention(
            (out_proj): NonDynamicallyQuantizableLinear(in_features=1024, out_features=1024, bias=True)
          )
          (proj_drop): Dropout(p=0.0, inplace=False)
          (dropout_layer): Dropout(p=0.0, inplace=False)
        )
        (ln2): LayerNorm((1024,), eps=1e-06, elementwise_affine=True)
        (ffn): FFN(
          (activate): GELU(approximate=none)
          (layers): Sequential(
            (0): Sequential(
              (0): Linear(in_features=1024, out_features=4096, bias=True)
              (1): GELU(approximate=none)
              (2): Dropout(p=0.0, inplace=False)
            )
            (1): Linear(in_features=4096, out_features=1024, bias=True)
            (2): Dropout(p=0.0, inplace=False)
          )
          (dropout_layer): DropPath()
        )
      )
      (16): TransformerEncoderLayer(
        (ln1): LayerNorm((1024,), eps=1e-06, elementwise_affine=True)
        (attn): MultiheadAttention(
          (attn): MultiheadAttention(
            (out_proj): NonDynamicallyQuantizableLinear(in_features=1024, out_features=1024, bias=True)
          )
          (proj_drop): Dropout(p=0.0, inplace=False)
          (dropout_layer): Dropout(p=0.0, inplace=False)
        )
        (ln2): LayerNorm((1024,), eps=1e-06, elementwise_affine=True)
        (ffn): FFN(
          (activate): GELU(approximate=none)
          (layers): Sequential(
            (0): Sequential(
              (0): Linear(in_features=1024, out_features=4096, bias=True)
              (1): GELU(approximate=none)
              (2): Dropout(p=0.0, inplace=False)
            )
            (1): Linear(in_features=4096, out_features=1024, bias=True)
            (2): Dropout(p=0.0, inplace=False)
          )
          (dropout_layer): DropPath()
        )
      )
      (17): TransformerEncoderLayer(
        (ln1): LayerNorm((1024,), eps=1e-06, elementwise_affine=True)
        (attn): MultiheadAttention(
          (attn): MultiheadAttention(
            (out_proj): NonDynamicallyQuantizableLinear(in_features=1024, out_features=1024, bias=True)
          )
          (proj_drop): Dropout(p=0.0, inplace=False)
          (dropout_layer): Dropout(p=0.0, inplace=False)
        )
        (ln2): LayerNorm((1024,), eps=1e-06, elementwise_affine=True)
        (ffn): FFN(
          (activate): GELU(approximate=none)
          (layers): Sequential(
            (0): Sequential(
              (0): Linear(in_features=1024, out_features=4096, bias=True)
              (1): GELU(approximate=none)
              (2): Dropout(p=0.0, inplace=False)
            )
            (1): Linear(in_features=4096, out_features=1024, bias=True)
            (2): Dropout(p=0.0, inplace=False)
          )
          (dropout_layer): DropPath()
        )
      )
      (18): TransformerEncoderLayer(
        (ln1): LayerNorm((1024,), eps=1e-06, elementwise_affine=True)
        (attn): MultiheadAttention(
          (attn): MultiheadAttention(
            (out_proj): NonDynamicallyQuantizableLinear(in_features=1024, out_features=1024, bias=True)
          )
          (proj_drop): Dropout(p=0.0, inplace=False)
          (dropout_layer): Dropout(p=0.0, inplace=False)
        )
        (ln2): LayerNorm((1024,), eps=1e-06, elementwise_affine=True)
        (ffn): FFN(
          (activate): GELU(approximate=none)
          (layers): Sequential(
            (0): Sequential(
              (0): Linear(in_features=1024, out_features=4096, bias=True)
              (1): GELU(approximate=none)
              (2): Dropout(p=0.0, inplace=False)
            )
            (1): Linear(in_features=4096, out_features=1024, bias=True)
            (2): Dropout(p=0.0, inplace=False)
          )
          (dropout_layer): DropPath()
        )
      )
      (19): TransformerEncoderLayer(
        (ln1): LayerNorm((1024,), eps=1e-06, elementwise_affine=True)
        (attn): MultiheadAttention(
          (attn): MultiheadAttention(
            (out_proj): NonDynamicallyQuantizableLinear(in_features=1024, out_features=1024, bias=True)
          )
          (proj_drop): Dropout(p=0.0, inplace=False)
          (dropout_layer): Dropout(p=0.0, inplace=False)
        )
        (ln2): LayerNorm((1024,), eps=1e-06, elementwise_affine=True)
        (ffn): FFN(
          (activate): GELU(approximate=none)
          (layers): Sequential(
            (0): Sequential(
              (0): Linear(in_features=1024, out_features=4096, bias=True)
              (1): GELU(approximate=none)
              (2): Dropout(p=0.0, inplace=False)
            )
            (1): Linear(in_features=4096, out_features=1024, bias=True)
            (2): Dropout(p=0.0, inplace=False)
          )
          (dropout_layer): DropPath()
        )
      )
      (20): TransformerEncoderLayer(
        (ln1): LayerNorm((1024,), eps=1e-06, elementwise_affine=True)
        (attn): MultiheadAttention(
          (attn): MultiheadAttention(
            (out_proj): NonDynamicallyQuantizableLinear(in_features=1024, out_features=1024, bias=True)
          )
          (proj_drop): Dropout(p=0.0, inplace=False)
          (dropout_layer): Dropout(p=0.0, inplace=False)
        )
        (ln2): LayerNorm((1024,), eps=1e-06, elementwise_affine=True)
        (ffn): FFN(
          (activate): GELU(approximate=none)
          (layers): Sequential(
            (0): Sequential(
              (0): Linear(in_features=1024, out_features=4096, bias=True)
              (1): GELU(approximate=none)
              (2): Dropout(p=0.0, inplace=False)
            )
            (1): Linear(in_features=4096, out_features=1024, bias=True)
            (2): Dropout(p=0.0, inplace=False)
          )
          (dropout_layer): DropPath()
        )
      )
      (21): TransformerEncoderLayer(
        (ln1): LayerNorm((1024,), eps=1e-06, elementwise_affine=True)
        (attn): MultiheadAttention(
          (attn): MultiheadAttention(
            (out_proj): NonDynamicallyQuantizableLinear(in_features=1024, out_features=1024, bias=True)
          )
          (proj_drop): Dropout(p=0.0, inplace=False)
          (dropout_layer): Dropout(p=0.0, inplace=False)
        )
        (ln2): LayerNorm((1024,), eps=1e-06, elementwise_affine=True)
        (ffn): FFN(
          (activate): GELU(approximate=none)
          (layers): Sequential(
            (0): Sequential(
              (0): Linear(in_features=1024, out_features=4096, bias=True)
              (1): GELU(approximate=none)
              (2): Dropout(p=0.0, inplace=False)
            )
            (1): Linear(in_features=4096, out_features=1024, bias=True)
            (2): Dropout(p=0.0, inplace=False)
          )
          (dropout_layer): DropPath()
        )
      )
      (22): TransformerEncoderLayer(
        (ln1): LayerNorm((1024,), eps=1e-06, elementwise_affine=True)
        (attn): MultiheadAttention(
          (attn): MultiheadAttention(
            (out_proj): NonDynamicallyQuantizableLinear(in_features=1024, out_features=1024, bias=True)
          )
          (proj_drop): Dropout(p=0.0, inplace=False)
          (dropout_layer): Dropout(p=0.0, inplace=False)
        )
        (ln2): LayerNorm((1024,), eps=1e-06, elementwise_affine=True)
        (ffn): FFN(
          (activate): GELU(approximate=none)
          (layers): Sequential(
            (0): Sequential(
              (0): Linear(in_features=1024, out_features=4096, bias=True)
              (1): GELU(approximate=none)
              (2): Dropout(p=0.0, inplace=False)
            )
            (1): Linear(in_features=4096, out_features=1024, bias=True)
            (2): Dropout(p=0.0, inplace=False)
          )
          (dropout_layer): DropPath()
        )
      )
      (23): TransformerEncoderLayer(
        (ln1): LayerNorm((1024,), eps=1e-06, elementwise_affine=True)
        (attn): MultiheadAttention(
          (attn): MultiheadAttention(
            (out_proj): NonDynamicallyQuantizableLinear(in_features=1024, out_features=1024, bias=True)
          )
          (proj_drop): Dropout(p=0.0, inplace=False)
          (dropout_layer): Dropout(p=0.0, inplace=False)
        )
        (ln2): LayerNorm((1024,), eps=1e-06, elementwise_affine=True)
        (ffn): FFN(
          (activate): GELU(approximate=none)
          (layers): Sequential(
            (0): Sequential(
              (0): Linear(in_features=1024, out_features=4096, bias=True)
              (1): GELU(approximate=none)
              (2): Dropout(p=0.0, inplace=False)
            )
            (1): Linear(in_features=4096, out_features=1024, bias=True)
            (2): Dropout(p=0.0, inplace=False)
          )
          (dropout_layer): DropPath()
        )
      )
    )
    (ln1): LayerNorm((1024,), eps=1e-06, elementwise_affine=True)
  )
  init_cfg={'type': 'Pretrained', 'checkpoint': 'https://download.openmmlab.com/mmsegmentation/v0.5/pretrain/segmenter/vit_large_p16_384_20220308-d4efb41d.pth'}
  (decode_head): SegmenterMaskTransformerHead(
    input_transform=None, ignore_index=255, align_corners=False
    (loss_decode): CrossEntropyLoss(avg_non_ignore=False)
    (layers): ModuleList(
      (0): TransformerEncoderLayer(
        (ln1): LayerNorm((1024,), eps=1e-05, elementwise_affine=True)
        (attn): MultiheadAttention(
          (attn): MultiheadAttention(
            (out_proj): NonDynamicallyQuantizableLinear(in_features=1024, out_features=1024, bias=True)
          )
          (proj_drop): Dropout(p=0.0, inplace=False)
          (dropout_layer): Dropout(p=0.0, inplace=False)
        )
        (ln2): LayerNorm((1024,), eps=1e-05, elementwise_affine=True)
        (ffn): FFN(
          (activate): GELU(approximate=none)
          (layers): Sequential(
            (0): Sequential(
              (0): Linear(in_features=1024, out_features=4096, bias=True)
              (1): GELU(approximate=none)
              (2): Dropout(p=0.0, inplace=False)
            )
            (1): Linear(in_features=4096, out_features=1024, bias=True)
            (2): Dropout(p=0.0, inplace=False)
          )
          (dropout_layer): Identity()
        )
      )
      (1): TransformerEncoderLayer(
        (ln1): LayerNorm((1024,), eps=1e-05, elementwise_affine=True)
        (attn): MultiheadAttention(
          (attn): MultiheadAttention(
            (out_proj): NonDynamicallyQuantizableLinear(in_features=1024, out_features=1024, bias=True)
          )
          (proj_drop): Dropout(p=0.0, inplace=False)
          (dropout_layer): Dropout(p=0.0, inplace=False)
        )
        (ln2): LayerNorm((1024,), eps=1e-05, elementwise_affine=True)
        (ffn): FFN(
          (activate): GELU(approximate=none)
          (layers): Sequential(
            (0): Sequential(
              (0): Linear(in_features=1024, out_features=4096, bias=True)
              (1): GELU(approximate=none)
              (2): Dropout(p=0.0, inplace=False)
            )
            (1): Linear(in_features=4096, out_features=1024, bias=True)
            (2): Dropout(p=0.0, inplace=False)
          )
          (dropout_layer): DropPath()
        )
      )
    )
    (dec_proj): Linear(in_features=1024, out_features=1024, bias=True)
    (patch_proj): Linear(in_features=1024, out_features=1024, bias=False)
    (classes_proj): Linear(in_features=1024, out_features=1024, bias=False)
    (decoder_norm): LayerNorm((1024,), eps=1e-05, elementwise_affine=True)
    (mask_norm): LayerNorm((2,), eps=1e-05, elementwise_affine=True)
  )
  init_cfg={'type': 'Normal', 'std': 0.01, 'override': {'name': 'conv_seg'}}
)
2022-09-21 17:25:21,348 - mmseg - INFO - Loaded 2296 images
2022-09-21 17:25:21,431 - mmseg - INFO - Loaded 764 images
2022-09-21 17:25:25,301 - mmseg - INFO - Loaded 764 images
2022-09-21 17:25:25,306 - mmseg - INFO - Start running, host: kcarvajal@nukwa-05.cnca, work_dir: /work/kcarvajal/mmsegmentation_Nematodos/work_dirs/segmenterL
…
